weights.npy (npy, 131200 bytes, 1 tensors)

array f8 [128, 128]
00000000: 0000 8057 8772 0040 0000 8082 0f62 0c40
00000010: 0000 8091 a89d 0f40 0000 c046 85d6 1640
00000020: 0000 00cd b9be 1b40 0000 00c1 b3ae 1f40
00000030: 0000 a021 1fd3 2440 0000 50ea 6186 2440
00000040: 0000 30ff f787 2240 0000 c0f8 aa75 2740
00000050: 0000 60e7 0660 2940 0000 406b 8c2d 2740
00000060: 0000 80bf 78b7 2740 0000 209c 4018 2840
00000070: 0000 6037 489c 2740 0000 c036 3b87 2940
00000080: 0000 e042 35f1 2b40 0000 e040 d18f 2a40
00000090: 0000 d094 b293 2c40 0000 f09d b043 2d40
000000a0: 0000 f044 a45f 3040 0000 7059 0501 2d40
000000b0: 0000 c03b 907b 2d40 0000 3035 df60 2e40
000000c0: 0000 28f8 a72b 3040 0000 8041 fca2 3040
000000d0: 0000 9051 f444 3040 0000 2854 e9e2 3040
000000e0: 0000 9055 199f 3040 0000 2055 aa44 3040
000000f0: 0000 7055 a711 3140 0000 d094 591c 3040
00000100: 0000 90c4 cad2 3040 0000 d001 f6c1 3040
00000110: 0000 4097 4df4 3040 0000 7820 d52b 3140
00000120: 0000 90bc 5c8f 3140 0000 7079 1b5e 3040
00000130: 0000 2078 226f 3140 0000 90a2 9d55 3340
00000140: 0000 18b0 156d 3140 0000 3096 8551 3040
00000150: 0000 88b3 58ae 3240 0000 2017 5afa 3140
00000160: 0000 584c 9af0 3240 0000 30cf 32c7 3040
00000170: 0000 c4d5 92c8 3040 0000 dc16 0237 3040
00000180: 0000 fcac 92a0 3140 0000 cca3 af2a 3140
00000190: 0000 74eb 4cb6 3040 0000 34ee 3d93 3140
000001a0: 0000 4874 ce5e 2f40 0000 7446 eaaf 3140
000001b0: 0000 9c03 7444 3140 0000 fc60 4de2 3040
000001c0: 0000 948c 7ad9 3040 0000 1458 8f2a 3240
000001d0: 0000 fc42 a49d 3240 0000 340a 8651 3040
000001e0: 0000 d4a6 bb2c 3140 0000 74bf adbd 3140
000001f0: 0000 ac58 0999 3140 0000 244d d03a 3140
00000200: 0000 841e d642 3140 0000 4c48 8d1e 3240
00000210: 0000 fc0d f42c 3040 0000 dc65 31a5 3140
00000220: 0000 445d ed70 3240 0000 7489 c94e 3140
00000230: 0000 04f7 f066 3140 0000 9407 9b79 3140
00000240: 0000 5c8b fd7c 3140 0000 1c23 c2a7 3140
00000250: 0000 0412 fcc4 3140 0000 248d ebad 3040
00000260: 0000 8cbb ceb0 3040 0000 7c36 7adf 3040
00000270: 0000 949b 6190 3140 0000 1ced 0358 3140
00000280: 0000 ecb4 dea3 3040 0000 c447 43fb 3040
00000290: 0000 38f6 4e04 3140 0000 d464 82cb 3040
000002a0: 0000 e4f7 c9c6 3140 0000 8c9f c20d 3240
000002b0: 0000 bcce 5e31 3240 0000 6c9e 1026 3340
000002c0: 0000 0451 68c0 3040 0000 4c60 d761 3240
000002d0: 0000 0c9e 31f2 3140 0000 fcdb 4312 3240
000002e0: 0000 bcc2 292f 3140 0000 0cec 4784 3040
000002f0: 0000 9cd2 8647 3240 0000 e435 e857 3140
00000300: 0000 dca7 ef83 3140 0000 3c3e 967f 3240
00000310: 0000 0c97 f11c 3340 0000 746d a129 3240
00000320: 0000 cc4a c851 3140 0000 dc0e 43d9 3140
00000330: 0000 6406 050b 3240 0000 b4e6 3de9 3140
00000340: 0000 9caf a294 3240 0000 d4ec 8e5b 3140
00000350: 0000 c4d4 29e5 3040 0000 ac05 aafe 3240
00000360: 0000 64a8 f7e3 3140 0000 94b3 a55e 3240
00000370: 0000 cc95 c29f 3140 0000 ac0d 5333 3440
00000380: 0000 fc31 17ab 3140 0000 6cd3 dcf5 3040
00000390: 0000 e4ae 8b79 3040 0000 7c77 3dae 3140
000003a0: 0000 e8aa 7556 2f40 0000 04e1 aa33 3040
000003b0: 0000 18af 239b 2c40 0000 2849 23d2 2d40
000003c0: 0000 d8c9 210e 2d40 0000 c8d0 12e5 2d40
000003d0: 0000 08f7 bfdc 2b40 0000 d8d5 f1a5 2b40
000003e0: 0000 841e 0dda 3040 0000 d8ba 64bd 2f40
000003f0: 0000 7408 7cb9 3040 0000 e42d 9ce2 3040
00000400: 0000 802a 6df1 0940 0000 0068 4e05 f93f
00000410: 0000 00f0 9b23 d13f 0000 007e 3889 d43f
00000420: 0000 0091 015c e93f 0000 009c d15a d73f
00000430: 0000 0055 b1a2 e73f 0000 00a9 24fb e83f
00000440: 0000 2007 f7cf 0240 0000 0049 0250 f53f
00000450: 0000 0060 20d6 f23f 0000 001b 8fd6 e73f
00000460: 0000 0018 5809 b8bf 0000 006b de08 e53f
00000470: 0000 00f4 532e df3f 0000 0088 fd85 b73f
00000480: 0000 000c 9177 d1bf 0000 405e 28e3 00c0
00000490: 0000 007d 7388 f7bf 0000 000c bb67 cfbf
000004a0: 0000 c02a 3a37 00c0 0000 0029 00c9 f33f
000004b0: 0000 80c4 7cb7 f13f 0000 0048 f887 cabf
000004c0: 0000 0060 ed84 be3f 0000 00a8 87b8 b63f
000004d0: 0000 0070 cda0 b03f 0000 003c 22df b23f
000004e0: 0000 8071 f1c3 ebbf 0000 80a0 f758 e43f
000004f0: 0000 001e 5aa0 c63f 0000 806a affc e2bf
00000500: 0000 0078 2a4b aa3f 0000 6007 da89 01c0
00000510: 0000 00f9 17d2 d2bf 0000 40e1 132f f33f
00000520: 0000 c0ab b614 f73f 0000 00b0 d576 90bf
00000530: 0000 802f 4047 ecbf 0000 0082 693f ccbf
00000540: 0000 0092 3744 cb3f 0000 00c6 2562 c43f
00000550: 0000 8098 69d4 e23f 0000 8082 d96b e33f
00000560: 0000 008d a5aa e2bf 0000 00ae 143d c4bf
00000570: 0000 8032 0946 e9bf 0000 806e 1570 ebbf
00000580: 0000 807c 12ea e3bf 0000 809a c859 e23f
00000590: 0000 406b a0a8 f93f 0000 80d3 6ce9 e73f
000005a0: 0000 0040 330e 753f 0000 0035 8045 dfbf
000005b0: 0000 002d 1669 dabf 0000 4030 f295 f23f
000005c0: 0000 0070 3e66 9d3f 0000 00de f775 c83f
000005d0: 0000 00b5 ed9a d8bf 0000 00c2 aa7f c5bf
000005e0: 0000 00c2 fd32 d13f 0000 00ab 7a3e ffbf
000005f0: 0000 0036 edd9 e3bf 0000 00dc c291 dabf
00000600: 0000 00d2 a3fc 03c0 0000 8046 196f f0bf
00000610: 0000 008b ea43 f33f 0000 00a8 6fa6 b73f
00000620: 0000 0012 ffcb d8bf 0000 00ac 3c3e e93f
00000630: 0000 80f4 1eab f63f 0000 801b 5827 f13f
00000640: 0000 00b5 be9e e73f 0000 00b0 2001 b33f
00000650: 0000 407e 16f4 f33f 0000 80e1 a5d2 e43f
00000660: 0000 007d b5cc d13f 0000 8018 ab02 e3bf
00000670: 0000 40b3 c5df f4bf 0000 8020 426d e23f
00000680: 0000 40d4 25c8 f2bf 0000 8062 668a ebbf
00000690: 0000 8009 afc6 e43f 0000 0045 0bb1 dc3f
000006a0: 0000 00ad f7de dabf 0000 4028 6f8e f1bf
000006b0: 0000 8076 ecea e43f 0000 809e ae05 e43f
000006c0: 0000 00ee c34e c53f 0000 007a bbb0 cf3f
000006d0: 0000 0059 3505 da3f 0000 40a6 ec07 f9bf
000006e0: 0000 00be c0ec c1bf 0000 40c0 0ba6 fdbf
000006f0: 0000 00b6 2b3d c8bf 0000 c046 4745 f5bf
00000700: 0000 0083 145a d4bf 0000 80e3 ba41 e7bf
00000710: 0000 000d 2784 d4bf 0000 0097 aba6 ddbf
00000720: 0000 006b 36b1 d13f 0000 8065 9df9 e8bf
00000730: 0000 4060 8694 fa3f 0000 0086 a399 cf3f
00000740: 0000 4063 e4d2 f23f 0000 00b8 e653 a83f
00000750: 0000 0034 ae0a bbbf 0000 c012 a861 fdbf
00000760: 0000 8016 5119 ef3f 0000 0030 4d1c ac3f
00000770: 0000 8040 7fbe fb3f 0000 009b 2816 e7bf
00000780: 0000 000a 74cb ee3f 0000 00b2 cc9c ea3f
00000790: 0000 0086 9fb4 d73f 0000 000b 6618 ebbf
000007a0: 0000 00d7 7189 e3bf 0000 0032 f64e e0bf
000007b0: 0000 0089 6ebc f33f 0000 00b9 6e96 04c0
000007c0: 0000 00ac 8b07 f9bf 0000 0070 e543 06c0
000007d0: 0000 0036 bd16 d43f 0000 00f4 ca5a e2bf
000007e0: 0000 0028 e649 e13f 0000 0062 ee99 c8bf
000007f0: 0000 006c 19ea bfbf 0000 c060 2633 f03f
2.055922206491232 3.54788114503026 3.9519816748797894 5.709492783993483 6.936255648732185 7.920607581734657 10.412346888333559 10.262465784326196
9.265563940629363 11.729820035398006 12.68755267187953 11.588961936533451 11.858343109488487 12.047367934137583 11.805238466709852 12.764123640954494
13.971109475940466 13.280893351882696 14.288471842184663 14.632206855341792 16.37360030040145 14.501993937417865 14.741334788501263 15.18920294009149
16.170531759038568 16.636661618947983 16.26935300603509 16.88637281395495 16.62148031964898 16.26822406798601 17.068959560245275 16.110741902142763
16.823406491428614 16.757660020142794 16.954308941960335 17.171220807358623 17.56000879779458 16.367606725543737 17.43411970883608 19.33443656936288
17.42611218057573 16.3184446208179 18.681040974333882 17.977937169373035 18.939854403957725 16.778119038790464 16.78349052462727 16.21487563010305
17.62723809387535 17.166742551140487 16.712111202068627 17.575163734145463 15.685168870724738 17.687168505974114 17.267395234666765 16.883993207477033
16.84952620137483 18.16624975670129 18.615787683986127 16.318451535888016 17.174738337285817 17.74093243200332 17.597798864357173 17.22974092606455
17.261079699732363 18.119343298487365 16.175598978064954 17.645285001955926 18.44112189207226 17.30776270944625 17.402114332653582 17.475021813996136
17.488243780098855 17.65530604775995 17.76947128865868 16.679375478066504 16.690654489211738 16.872958569787443 17.563989375717938 17.343809909187257
16.640116984955966 16.981495366431773 17.016829861328006 16.7949584024027 17.77651929203421 18.053750964812934 18.19285289850086 19.148691083304584
16.75159174297005 18.382192629389465 17.946069600991905 18.071347950957716 17.18423096742481 16.516722443513572 18.27940098103136 17.34338700119406
17.515375605784357 18.49838627781719 19.11306137125939 18.162619438953698 17.319462466053665 17.848679474554956 18.043045424856246 17.911100787110627
18.58060739096254 17.35764961410314 16.89516954217106 18.99478183221072 17.890497707761824 18.369715903885663 17.624062883667648 20.20048604439944
17.668322681449354 16.960400785319507 16.474787645973265 17.68062540795654 15.668866482563317 16.201826156117022 14.30300662200898 14.910425459034741
14.52760153543204 14.947409176267684 13.931152076460421 13.82411068212241 16.8517626831308 15.869909132830799 16.724548843689263 16.88519560638815
3.242883998900652 1.5637954771518707 0.26779840886592865 0.3208752851933241 0.7924812156707048 0.36491813883185387 0.7386099491268396 0.7806571293622255
2.3515453869476914 1.3320334292948246 1.1772769689559937 0.7449412848800421 -0.09389257989823818 0.6573326196521521 0.48720263317227364 0.09188828058540821
-0.2729227654635906 -2.1109168399125338 -1.470813263207674 -0.24535310827195644 -2.0269664134830236 1.2365724183619022 1.107296722009778 -0.20727447047829628
0.11921580880880356 0.08875320293009281 0.06495365127921104 0.07371725048869848 -0.8676688401028514 0.6358602652326226 0.1767685553058982 -0.5933453636243939
0.05135472025722265 -2.192310388199985 -0.2940730983391404 1.1989935683086514 1.4425570210441947 -0.01607831846922636 -0.8836975982412696 -0.22068518493324518
0.21301931980997324 0.15924522560089827 0.5884292582049966 0.606915240176022 -0.5833308938890696 -0.15811403747648 -0.7897993074730039 -0.8574320944026113
-0.6223232680931687 0.5734599130228162 1.6036686124280095 0.747244275175035 0.005140495486557484 -0.48861699271947145 -0.4126639785245061 1.1616079220548272
0.02871034201234579 0.19110010471194983 -0.3844560878351331 -0.16795858833938837 0.26873725838959217 -1.9527537040412426 -0.6203523688018322 -0.4151465557515621
-2.498359337449074 -1.0271237138658762 1.2040810994803905 0.0923833642154932 -0.38745095022022724 0.7888472899794579 1.4167775679379702 1.072105510160327
0.7381280455738306 0.0742359571158886 1.2470917636528611 0.6507138637825847 0.2781194420531392 -0.5940757254138589 -1.304631900973618 0.5758371958509088
-1.1738642016425729 -0.8606445239856839 0.6492533860728145 0.44830590952187777 -0.4198588551953435 -1.0972739765420556 0.6536772074177861 0.6256936164572835
0.16646622773259878 0.24758094269782305 0.4065678948536515 -1.564434670843184 -0.14003762509673834 -1.8530385503545403 -0.18936678301542997 -1.3294136775657535
-0.3179980544373393 -0.7267736857756972 -0.32056595105677843 -0.46329774614423513 0.27644119691103697 -0.7804705603048205 1.6612609634175897 0.24687618296593428
1.1764873387292027 0.047515115700662136 -0.10563172120600939 -1.8363419277593493 0.9718404235318303 0.0549034234136343 1.7340080756694078 -0.7214549090713263
0.962335605174303 0.83164057508111 0.37039936147630215 -0.8467283453792334 -0.610527915880084 -0.5096388794481754 1.2335038520395756 -2.57345337420702
-1.5643421858549118 -2.783152461051941 0.3138878848403692 -0.5735831037163734 0.5402708798646927 -0.19219760689884424 -0.1246658219024539 1.0124877719208598
